data_prep/noise_profiler/hg-s22u-s908u-na-b0q-pr-w-id35248-v5/model_params.npy (npy, 1920 bytes, 1 tensors)

array f8 [56, 4]
00000000: 0000 0000 0000 5940 0000 0000 0000 0000
00000010: 54a1 d410 e7cb d43f bc8a fc05 442e 38c0
00000020: 0000 0000 0000 5940 0000 0000 0000 f03f
00000030: 965e d15c 3b0b d13f e6ab faa5 f361 32c0
00000040: 0000 0000 0000 5940 0000 0000 0000 0040
00000050: 5702 bf52 458d d03f 91c5 6b75 e5d2 31c0
00000060: 0000 0000 0000 5940 0000 0000 0000 0840
00000070: af3d b598 78be d43f 2b7e e725 be23 38c0
00000080: 0000 0000 00c0 6240 0000 0000 0000 0000
00000090: a54b c7df f6b9 d73f 1195 6ca7 d34b 3bc0
000000a0: 0000 0000 00c0 6240 0000 0000 0000 f03f
000000b0: 8294 58a9 7adf d43f e185 d9ab dd49 36c0
000000c0: 0000 0000 00c0 6240 0000 0000 0000 0040
000000d0: 8deb 55ff 59a2 d43f 080f 0f48 070e 36c0
000000e0: 0000 0000 00c0 6240 0000 0000 0000 0840
000000f0: 7c85 e586 17c4 d73f ffe3 a24e c658 3bc0
00000100: 0000 0000 0000 6940 0000 0000 0000 0000
00000110: 6772 6db7 a7f2 da3f 2ac1 3727 aeb8 3ec0
00000120: 0000 0000 0000 6940 0000 0000 0000 f03f
00000130: 18c1 adae f165 d83f 234a f9f0 66d2 39c0
00000140: 0000 0000 0000 6940 0000 0000 0000 0040
00000150: be30 701f 0360 d83f d8cc a145 a8d0 39c0
00000160: 0000 0000 0000 6940 0000 0000 0000 0840
00000170: dcc0 9f4d c0f9 da3f b6c9 7165 dac5 3ec0
00000180: 0000 0000 00c0 7240 0000 0000 0000 0000
00000190: bebc 2949 ab9b e03f 9f22 3a7d 2697 42c0
000001a0: 0000 0000 00c0 7240 0000 0000 0000 f03f
000001b0: 7fac a2bb 371c df3f 6c04 a51d 9913 40c0
000001c0: 0000 0000 00c0 7240 0000 0000 0000 0040
000001d0: 78d1 8da4 1d78 df3f 9eca e785 9d52 40c0
000001e0: 0000 0000 00c0 7240 0000 0000 0000 0840
000001f0: a4ca 9ff9 a888 e03f 37c8 e8df 2b87 42c0
00000200: 0000 0000 0000 7940 0000 0000 0000 0000
00000210: 13df bdb1 6d20 e33f fe0e a203 20e6 44c0
00000220: 0000 0000 0000 7940 0000 0000 0000 f03f
00000230: 7806 fcfd 9a48 e23f 435f 1d6c ba66 42c0
00000240: 0000 0000 0000 7940 0000 0000 0000 0040
00000250: f621 368c 4490 e23f 7ceb 5649 22e1 42c0
00000260: 0000 0000 0000 7940 0000 0000 0000 0840
00000270: ad99 fb4a 2826 e33f f660 8055 19f6 44c0
00000280: 0000 0000 00c0 8240 0000 0000 0000 0000
00000290: 3f5b d415 1eda e63f 3ea9 6692 49c3 47c0
000002a0: 0000 0000 00c0 8240 0000 0000 0000 f03f
000002b0: 6b73 3640 b791 e63f 330d 690f c589 45c0
000002c0: 0000 0000 00c0 8240 0000 0000 0000 0040
000002d0: 422b 061b 32b4 e63f 6972 9eda cbf6 45c0
000002e0: 0000 0000 00c0 8240 0000 0000 0000 0840
000002f0: a848 c802 7dfd e63f 0e94 f3b3 01f1 47c0
00000300: 0000 0000 0000 8940 0000 0000 0000 0000
00000310: 6687 4d39 6793 eb3f 93e2 e296 bcdf 4bc0
00000320: 0000 0000 0000 8940 0000 0000 0000 f03f
00000330: 62b5 506c 3602 ec3f a8e0 4b33 dcf2 49c0
00000340: 0000 0000 0000 8940 0000 0000 0000 0040
00000350: ef0a f9fe 9b9d ec3f 85a0 f608 3b0d 4bc0
00000360: 0000 0000 0000 8940 0000 0000 0000 0840
00000370: 2789 b408 7c8d eb3f 3fa8 16be 4bbc 4bc0
00000380: 0000 0000 00c0 9240 0000 0000 0000 0000
00000390: b099 5090 1e3c f33f 4dfc ddc7 a1ce 51c0
000003a0: 0000 0000 00c0 9240 0000 0000 0000 f03f
000003b0: 991a a10d 3762 f43f d705 1e51 5f41 51c0
000003c0: 0000 0000 00c0 9240 0000 0000 0000 0040
000003d0: 16e2 c091 3e9e f43f f2fa 9424 cc23 52c0
000003e0: 0000 0000 00c0 9240 0000 0000 0000 0840
000003f0: e774 0a03 fd57 f33f 13b3 1656 b003 52c0
00000400: 0000 0000 0000 9940 0000 0000 0000 0000
00000410: 8aee 6fcf 85d4 f83f da6d 3f2f 9288 56c0
00000420: 0000 0000 0000 9940 0000 0000 0000 f03f
00000430: e692 8449 8209 fb3f c754 907f d2ab 55c0
00000440: 0000 0000 0000 9940 0000 0000 0000 0040
00000450: e9a7 8346 fcc4 fb3f 29cd b667 9517 57c0
00000460: 0000 0000 0000 9940 0000 0000 0000 0840
00000470: 71f5 b89e 13cd f83f 83da 3ad7 848b 56c0
00000480: 0000 0000 0034 9f40 0000 0000 0000 0000
00000490: 3046 4d04 509d ff3f 355a ba75 10f6 5ac0
000004a0: 0000 0000 0034 9f40 0000 0000 0000 f03f
000004b0: 9102 dcfd 14df 0140 bd01 d5cc e62d 5bc0
000004c0: 0000 0000 0034 9f40 0000 0000 0000 0040
000004d0: 35c9 6b5c 654d 0240 73bb 36da 3ecf 5cc0
000004e0: 0000 0000 0034 9f40 0000 0000 0000 0840
000004f0: 5d90 b224 99b7 ff3f 80be 3372 1aee 5ac0
00000500: 0000 0000 00c2 a240 0000 0000 0000 0000
00000510: ef98 548a 632d 0340 74c5 5bb7 1218 5dc0
00000520: 0000 0000 00c2 a240 0000 0000 0000 f03f
00000530: ebb2 092e 7bef 0540 d57e efff b5a4 5dc0
00000540: 0000 0000 00c2 a240 0000 0000 0000 0040
00000550: e31b daaf 483c 0640 dd58 7e29 6c41 5fc0
00000560: 0000 0000 00c2 a240 0000 0000 0000 0840
00000570: 2d50 61c6 ef67 0340 793a d6c6 3dc2 5dc0
00000580: 0000 0000 0000 a940 0000 0000 0000 0000
00000590: 3e79 d3d0 5d96 0940 c883 198a 2682 5ec0
000005a0: 0000 0000 0000 a940 0000 0000 0000 f03f
000005b0: 25ff 0baa 1db3 0d40 c9c3 2009 2358 5fc0
000005c0: 0000 0000 0000 a940 0000 0000 0000 0040
000005d0: 4c9f cc6d b2f7 0d40 55cc 6527 03e3 60c0
000005e0: 0000 0000 0000 a940 0000 0000 0000 0840
000005f0: d1a0 859f eb03 0a40 e167 9eb1 57fb 5fc0
00000600: 0000 0000 0036 af40 0000 0000 0000 0000
00000610: 6eaa 1155 6ed2 0f40 7c56 eec1 2c21 5ec0
00000620: 0000 0000 0036 af40 0000 0000 0000 f03f
00000630: 6e75 9890 b04c 1240 b45f 73f2 e577 5dc0
00000640: 0000 0000 0036 af40 0000 0000 0000 0040
00000650: 5e15 56f3 75db 1240 af10 6d4a 34bc 61c0
00000660: 0000 0000 0036 af40 0000 0000 0000 0840
00000670: 3514 53ab d715 1040 fdc5 74a4 ba6d 5fc0
00000680: 0000 0000 00c3 b240 0000 0000 0000 0000
00000690: 0262 c733 e4dd 1240 18b5 5f52 c53c 5bc0
000006a0: 0000 0000 00c3 b240 0000 0000 0000 f03f
000006b0: 9327 e2f9 6cf3 1540 ffa2 355c 1276 5bc0
000006c0: 0000 0000 00c3 b240 0000 0000 0000 0040
000006d0: 865c 837a 647d 1640 908f a28e 6757 61c0
000006e0: 0000 0000 00c3 b240 0000 0000 0000 0840
000006f0: 41a3 c125 ce18 1340 6652 7d21 db2e 5cc0
100.0 0.0 0.3249452270852278 -24.180725454478974 100.0 1.0 0.2663105398582756 -18.382624028872577
100.0 2.0 0.25862248497654633 -17.823813761531316 100.0 3.0 0.32412543213737427 -24.13962017919236
150.0 0.0 0.3707253632866759 -27.29619833374915 150.0 1.0 0.32614008462616806 -22.28853868542308
150.0 2.0 0.32240915236587214 -22.054798606563992 150.0 3.0 0.3713434998845384 -27.346775927322593
200.0 0.0 0.42106049454540656 -30.72140736685939 200.0 1.0 0.3812221723410558 -25.82188325964138
200.0 2.0 0.3808601195348834 -25.815067626955027 200.0 3.0 0.4214936025664551 -30.772863712578065
300.0 0.0 0.5190025738683273 -37.180862096201274 300.0 1.0 0.4860972721459759 -32.15311022336468
300.0 2.0 0.4917062861416279 -32.64543222253745 300.0 3.0 0.5166821361038569 -37.05602644792855
400.0 0.0 0.5977085563199317 -41.79785199559227 400.0 1.0 0.5713629685053112 -36.80256415781198
400.0 2.0 0.5801108110909456 -37.7588588404096 400.0 3.0 0.5984078850277023 -41.92264813202375
600.0 0.0 0.7141256739003906 -47.5256827355647 600.0 1.0 0.7052875761179228 -43.07632629994841
600.0 2.0 0.7094965484442144 -43.92809612976709 600.0 3.0 0.7184433988898222 -47.88286446946596
800.0 0.0 0.8617435568996654 -55.74794279173252 800.0 1.0 0.8752700915844509 -51.89734498219451
800.0 2.0 0.8942394237459136 -54.10336410562835 800.0 3.0 0.8610210580848489 -55.471061478674976
1200.0 0.0 1.2021775853441845 -71.22862431219365 1200.0 1.0 1.2739782841105465 -69.02144267970958
1200.0 2.0 1.2886338895315297 -72.55933489369252 1200.0 3.0 1.208981525305086 -72.05763771263837
1600.0 0.0 1.5518854239479958 -90.13392239755868 1600.0 1.0 1.6898215171615276 -86.68472279639091
1600.0 2.0 1.7355921511139007 -92.36849396564197 1600.0 3.0 1.550067539224383 -90.17998295543116
1997.0 0.0 1.9759063880959609 -107.84475463102793 1997.0 1.0 2.2339267571226817 -108.71721192170567
1997.0 2.0 2.2877909870523134 -115.2382112059111 1997.0 3.0 1.982323783254308 -107.720364141971
2401.0 0.0 2.397162514406879 -116.37614234888116 2401.0 1.0 2.7419341656408185 -118.57360838306643
2401.0 2.0 2.7794355143009724 -125.02222668970667 2401.0 3.0 2.425750303120387 -119.03502055092567
3200.0 0.0 3.1984211267983076 -122.0336022614639 3200.0 1.0 3.7124589238082017 -125.37713840675055
3200.0 2.0 3.745945794875217 -135.09413499720054 3200.0 3.0 3.251914259210118 -127.92722740620913
3995.0 0.0 3.977749504663101 -120.51835678363017 3995.0 1.0 4.574892291360227 -117.87340985552765
3995.0 2.0 4.714317133072965 -141.88138314534942 3995.0 3.0 4.021330525346504 -125.71451674846317
4803.0 0.0 4.716690835041392 -108.9495435652392 4803.0 1.0 5.487720398357754 -109.84487061727485
4803.0 2.0 5.622453607814469 -138.73139125585703 4803.0 3.0 4.774223890250881 -112.73212468374695
